classifier_model/mnist-feedforward.pth (torch, 103571 bytes, 4 tensors)

linear1.weight f4 [32, 784]
-0.018244872 0.019561624 -0.020824531 -0.005100655 -0.033778626 -0.028652899 0.03439491 0.03217548
-0.015507946 0.005056837 -0.027730517 0.031388428 -0.015898472 0.0146626625 0.02508873 0.011267335
-0.035357546 0.016896397 -0.024482587 0.0022526598 -0.016394671 0.01905137 -0.015684402 -0.022018498
-0.0021164163 0.00643049 0.018991841 -0.008188346 0.0316292 0.0013349397 0.007969308 -0.0013761776
-0.03173159 -0.021210458 0.027749613 0.025801787 0.026703801 0.025727069 0.009599703 0.0024011987
-0.01680792 0.0022453596 -0.008439815 -0.011155683 -0.0035075508 0.03404481 0.0080013955 -0.0029094818
-0.031631187 0.0250722 -0.00901972 -0.023762269 -0.020559836 0.030224457 -0.014095822 -0.014583673
-0.0041834116 -0.0017107555 0.029573724 -0.021692302 -0.022253301 0.029678658 0.01174757 -0.027938163
0.015281444 -0.002938946 0.009865565 -0.010137414 0.0046687494 0.024248585 0.03372361 0.07936098
0.0062155155 0.039237414 0.012250867 0.0255335 -0.015090737 -0.006804258 0.016984764 0.00050020637
0.023783166 0.013968916 -0.009529024 -0.019130882 -0.02068448 0.01358642 0.00894755 0.010559622
0.021721752 0.019122666 0.004657157 -0.016114952 -0.012712433 0.0024078528 0.0054679755 0.011143694
0.061486706 0.047152672 0.11438655 0.18307555 0.13086492 0.036361545 0.008498514 0.063155904
0.038024746 0.009676951 -0.024424573 -0.017180594 -0.02610207 0.023842396 -0.0054152017 0.003273547
-0.005480843 -0.02587259 -0.018478123 0.007581922 0.0031239495 -0.014249731 -0.029608298 0.007647701
0.014258378 0.029065628 0.063290685 0.10686354 0.06865336 0.06358985 0.080699384 0.14791892
0.03907947 0.036658525 0.15839747 -0.0062962286 0.021864653 0.042841595 0.062497273 0.016281491
0.040145893 -0.008984559 0.024809914 -0.028935328 0.017581906 0.03554515 0.007243872 -0.0276081
-0.025604475 0.017047387 -0.00010841732 -0.029489623 -0.07337696 0.035735566 0.1391728 0.12965205
0.03075191 0.0945683 0.018217914 0.08724374 0.04345343 0.01662282 0.04297613 -0.039767183
0.034796286 -0.008741074 0.088463895 0.03605262 -0.006075634 0.0563838 0.022009661 0.00846595
-0.021880228 -0.0021844166 -0.025660435 -0.011473379 0.016465701 -0.017429987 -0.0016817144 -0.023554077
0.11349439 0.10215196 0.11426237 0.10634791 0.124140635 0.12414416 0.09844511 0.054123167
0.10092184 0.024677977 0.15251774 0.095418185 0.046936043 0.09598334 0.053642303 -0.018555082
0.09396753 0.04206273 -0.0035401715 -0.029810991 -0.018477838 0.020547222 -0.010133741 -0.04558228
-0.022153864 -0.029134853 0.022349102 0.07457703 0.098859504 0.09517853 0.14446835 0.19197361
0.14316946 -0.027752414 0.13613091 0.015585428 0.09997379 0.07444965 0.1787521 0.13934195
0.1806677 0.08207236 0.022625688 -0.058782503 -0.013505478 0.098961845 -0.013750745 0.029923622
-0.02294937 -0.020648213 0.011239671 -0.0065193833 -0.09640611 -0.066005915 -0.055645227 -0.0075183404
0.00707338 0.07456668 0.08454709 0.02961736 0.06948851 0.038798854 0.15050076 0.04757444
-0.030290745 0.001967465 0.100633316 0.016269008 0.075572275 0.048532564 -0.035984974 -0.08233826
0.0055651525 0.042565074 0.041563697 -0.034359667 0.013418251 -0.006375042 0.0038723617 0.015504861
00000000: 4576 95bc b33f a03c 3598 aabc 6523 a7bb
00000010: 755b 0abd 7cb9 eabc ade1 0c3d 70ca 033d
00000020: 0a15 7ebc d3b3 a53b 1c2b e3bc 2791 003d
00000030: 833d 82bc aa3b 703c e186 cd3c a19a 383c
00000040: 13d3 10bd 506a 8a3c b58f c8bc 5ca1 133b
00000050: 1e4e 86bc 9e11 9c3c 937c 80bc 2360 b4bc
00000060: 93b3 0abb dcb6 d23b c794 9b3c 6a28 06bc
00000070: 9f8d 013d 25f9 ae3a b391 023c dc60 b4ba
00000080: fcf8 01bd 8ec1 adbc 2853 e33c 455e d33c
00000090: eec1 da3c 93c1 d23c 1348 1d3c 6e5d 1d3b
000000a0: c3b0 89bc e226 133b 2647 0abc 53c6 36bc
000000b0: f0de 65bb 9272 0b3d 4918 033c 01ad 3ebb
000000c0: b48f 01bd 3764 cd3c 73c7 13bc 17a9 c2bc
000000d0: 1a6d a8bc 4899 f73c 2af2 66bc 5cf0 6ebc
000000e0: 0015 89bb 6e3b e0ba 9844 f23c 0eb4 b1bc
000000f0: 8e4c b6bc a820 f33c e178 403c 93de e4bc
00000100: 065f 7a3c 559b 40bb 2ea3 213c 6517 26bc
00000110: 4ffc 983b f8a4 c63c c521 0a3d 0288 a23d
00000120: 86ab cb3b 69b7 203d dcb7 483c a12b d13c
00000130: 233f 77bc 41f6 debb a223 8b3c 4820 033a
00000140: ead4 c23c e1dd 643c a01f 1cbc 5eb8 9cbc
00000150: 8072 a9bc 9399 5e3c bf98 123c 4402 2d3c
00000160: d1f1 b13c 23a7 9c3c 119b 983b 8103 84bc
00000170: cf47 50bc 11cd 1d3b b42c b33b 0a94 363c
00000180: 7cd9 7b3d 2923 413d 7f43 ea3d 2878 3b3e
00000190: 7401 063e d8ef 143d 5a3d 0b3c e257 813d
000001a0: d6bf 1b3d 138c 1e3c 0b16 c8bc 51be 8cbc
000001b0: 02d4 d5bc 2151 c33c 0172 b1bb 0189 563b
000001c0: a598 b3bb c1f2 d3bc 6f5f 97bc c671 f83b
000001d0: 2dbb 4c3b b477 69bc 1a8d f2bc 9199 fa3b
000001e0: f99b 693c 0a1b ee3c 8c9e 813d 46db da3d
000001f0: 229a 8c3d 653b 823d b845 a53d 0f78 173e
00000200: cb11 203d 4027 163d f232 223e 9850 cebb
00000210: 801d b33c ab7a 2f3d 24fd 7f3d c360 853c
00000220: 0570 243d f933 13bc 293e cb3c c809 edbc
00000230: ee07 903c cb97 113d 015e ed3b 622a e2bc
00000240: 7ac0 d1bc f6a6 8b3c 1b5e e3b8 3994 f1bc
00000250: a946 96bd 755f 123d 5183 0e3e 82c3 043e
00000260: 6eeb fb3c 06ad c13d bc3d 953c d9ac b23d
00000270: 39fc 313d 952c 883c bd07 303d eae2 22bd
00000280: 8d86 0e3d b936 0fbc 8f2c b53d e9ab 133d
00000290: 1d16 c7bb b3f2 663d 9b4d b43c c5b4 0a3c
000002a0: 2a3e b3bc 6e28 0fbb d535 d2bc d7fa 3bbc
000002b0: 14e3 863c 55c9 8ebc f96c dcba 7bf4 c0bc
000002c0: bf6f e83d 0c35 d13d 6402 ea3d efcc d93d
000002d0: 723d fe3d 4b3f fe3d 979d c93d 41b0 5d3d
000002e0: 1cb0 ce3d 7829 ca3c 9c2d 1c3e 9c6a c33d
000002f0: 0240 403d ea92 c43d 08b8 5b3d d400 98bc
00000300: 0c72 c03d f849 2c3d 3902 68bb 2e36 f4bc
00000310: d65e 97bc a652 a83c fe07 26bc 7cb4 3abd
00000320: 057c b5bc 37ac eebc 7715 b73c d8bb 983d
00000330: da76 ca3d f6ec c23d 83ef 133e bb94 443e
00000340: 049b 123e 0859 e3bc e765 0b3e 065a 7f3c
00000350: 0fbf cc3d 0f79 983d ca0a 373e a8af 0e3e
00000360: f400 393e 8e15 a83d 8259 b93c ecc5 70bd
00000370: 1546 5dbc 82ac ca3d ce4a 61bc 6222 f53c
00000380: 5100 bcbc 7126 a9bc 9926 383c 8da0 d5bb
00000390: 9170 c5bd 1c2e 87bd 40ec 63bd 695c f6bb
000003a0: d0c7 e73b 6ab6 983d 0627 ad3d 1ba0 f23c
000003b0: fe4f 8e3d 8ceb 1e3d df1c 1a3e 6add 423d
000003c0: 4c24 f8bc 96f0 003b d718 ce3d 9546 853c
000003d0: a3c5 9a3d 15ca 463d fb64 13bd f6a0 a8bd
000003e0: e25b b63b b758 2e3d b23e 2a3d b9bc 0cbd
000003f0: 39d8 5b3c bae5 d0bb 73c7 7d3b 1a08 7e3c

linear1.bias f4 [32]
0.25840175 -0.005500021 0.16135637 -0.026989138 0.107062094 0.15165608 0.087924406 -0.18941417
0.053538423 0.4028813 0.018885763 0.17056195 0.4385327 0.061105404 0.42775783 0.20495686
0.060392607 0.09126433 0.1925673 0.018914703 0.050034717 -0.12883353 0.21074605 -0.13184148
0.07803363 0.39043888 0.06500653 0.24423414 0.11970369 0.016885059 -0.44001785 0.19605684
00000000: 3c4d 843e 8539 b4bb 9b3a 253e 5318 ddbc
00000010: 5f43 db3d bb4b 1b3e b611 b43d caf5 41be
00000020: 1b4b 5b3d 7546 ce3e 51b6 9a3c cba7 2e3e
00000030: 5c87 e03e a949 7a3d 1303 db3e 36e0 513e
00000040: 3d5e 773d cbe8 ba3d 5d30 453e 02f3 9a3c
00000050: 34f1 4c3d f0ec 03be d0cd 573e 7401 07be
00000060: 19d0 9f3d 9be7 c73e 2522 853d 8418 7a3e
00000070: 3527 f53d 8952 8a3c 054a e1be 20c3 483e

linear2.weight f4 [10, 32]
-0.023088694 0.5718878 -0.1875066 -0.23188704 -0.08000154 -0.5833169 -0.33504406 0.3936269
0.47573766 -0.34217128 -0.08005926 0.07853794 0.37141395 0.25974596 0.49662638 0.25053954
-0.72188365 -0.05320591 -0.08317305 -0.48453155 0.6492783 -0.20136733 0.23667887 1.0350415
-0.87619907 -0.78816754 -0.4482159 0.4189347 0.64488834 -0.43415222 -0.23470628 -0.35850942
1.1796522 -1.0188733 0.4845206 -1.0460819 -0.08109932 -0.36780515 0.7171539 -0.7044311
-0.9066819 0.04604217 0.117495075 0.524121 -0.676452 -0.5374344 -0.21763876 -0.066834874
0.4112624 -0.030841863 -0.83394325 1.0600761 -0.41055164 -0.38161904 -0.032582387 -0.17113788
0.80960345 0.31355935 1.0600467 0.19699813 0.07813265 0.024725445 -0.6619403 0.63485754
-0.3129358 -0.5388867 0.27384385 -0.78221804 -0.84556997 0.5700085 -0.1683452 -0.13529477
-0.047052376 0.10167163 0.2442536 0.5902582 -0.041498926 0.80625683 -0.7188139 0.21931328
-0.42956194 0.34121865 0.3562687 0.90323085 0.53018177 0.27695763 -0.31111977 0.60789204
0.15958014 0.2578991 0.6093986 -1.159019 1.1338168 -1.0563722 0.3178632 0.9815203
0.54462475 -0.054750904 0.028059045 -0.1276944 -0.8088023 0.12918963 -0.58572096 0.56705844
0.9198301 -0.3365494 -0.11147789 -0.3024508 0.048761807 -0.4373245 0.03397387 -0.32175502
0.9076279 0.9805622 -0.2827149 0.7572657 0.704595 0.7277633 -0.10177322 -0.7346214
0.38875315 -0.6337036 -0.5503129 0.00535958 -0.3963206 0.5797341 0.68016726 0.29288495
-0.83855027 0.16928366 1.0130768 -0.029507754 1.2694391 -0.12528773 0.70330065 -0.5328979
-1.1462115 -0.39437148 -0.22632462 0.56887436 -0.030678293 0.1993642 -0.18842009 1.0094694
0.02391737 -0.4422741 0.822402 -0.37887454 -0.26505178 -0.2072934 -0.04795176 -0.5220037
-0.35179433 0.16467856 0.08259183 -0.59274024 -0.4221515 1.0559589 -0.12303032 -1.1373696
1.1934516 0.08544105 -1.1051891 1.1852907 0.8646849 0.15422498 -0.50530994 -0.20762022
0.21672617 1.6106079 0.19172804 0.04435284 0.5901638 0.10783343 0.15223427 -0.2911336
0.8369342 -0.78100723 0.37569073 0.2433194 -0.33538815 0.19902804 0.6357687 -0.9450967
0.036947954 -1.3406388 -0.42274866 0.9258934 0.17620979 -0.5371487 -0.18342414 -0.5763708
-0.47053713 -0.050330892 -0.5718447 0.58166575 0.19867983 0.21834567 -0.95123315 0.8113896
-0.70306623 -0.5076055 0.049288824 0.551693 -1.3144697 0.09257898 0.59624016 0.10558269
-0.5203956 -0.48082137 0.679263 -0.6156216 0.7524836 -0.8112887 0.693042 0.07516359
0.24437894 0.38001907 0.48655146 0.13985935 -0.17123367 -0.32793292 -1.0537168 -0.060414564
0.00018680615 -0.49913406 0.653491 -0.79311883 0.166148 -0.78632265 0.1664642 -1.0505354
0.5612721 0.3902261 -0.09506805 0.09721072 0.93576485 -0.12919156 1.2246459 0.5884285
-0.5176896 -0.10557152 -0.84232306 1.0446972 -0.36332393 0.80739737 0.2588663 -0.13234605
-1.0918006 1.0319422 0.74861425 -0.66732085 -0.2877358 0.29142335 0.15112902 0.7995983
00000000: 8024 bdbc 3d67 123f bb01 40be cc73 6dbe
00000010: d9d7 a3bd 4254 15bf e58a abbe 7789 c93e
00000020: e393 f33e 1331 afbe 1cf6 a3bd 80d8 a03d
00000030: f829 be3e 6cfd 843e d045 fe3e b846 803e
00000040: 5ecd 38bf 71ee 59bd a256 aabd 8514 f8be
00000050: 1a37 263f 3d33 4ebe f25b 723e 3d7c 843f
00000060: 954e 60bf 59c5 49bf 8e7c e5be 9c7e d63e
00000070: 6717 253f 3349 debe d856 70be 8c8e b7be
00000080: d8fe 963f 716a 82bf 1613 f83e 03e6 85bf
00000090: 6617 a6bd f550 bcbe 6697 373f 9955 34bf
000000a0: 4e1c 68bf b796 3c3d 42a1 f03d cb2c 063f
000000b0: f52b 2dbf 4d95 09bf b2dc 5ebe b9e0 88bd
000000c0: fc90 d23e 13a8 fcbc 4e7d 55bf 93b0 873f
000000d0: d333 d2be 9263 c3be 1c75 05bd c53e 2fbe
000000e0: 2c42 4f3f da8a a03e 9caf 873f e1b9 493e
000000f0: 0304 a03d 048d ca3c eb74 29bf 0686 223f
00000100: 1f39 a0be 7bf4 09bf 4335 8c3e 713f 48bf
00000110: 4677 58bf 14ec 113f af62 2cbe b68a 0abe
00000120: feb9 40bd 3739 d03d 9e1d 7a3e 291b 173f
00000130: c7fa 29bd d966 4e3f 3004 38bf a993 603e
00000140: 8bef dbbe 36b4 ae3e da68 b63e 233a 673f
00000150: feb9 073f 64cd 8d3e 174b 9fbe d09e 1b3f
00000160: fa68 233e 5a0b 843e 8c01 1c3f bc5a 94bf
00000170: e920 913f 3437 87bf f7be a23e ea44 7b3f
00000180: 876c 0b3f 7c42 60bd 15dc e53c 52c2 02be
00000190: ab0d 4fbf 494a 043e cff1 15bf be2a 113f
000001a0: fc79 6b3f 3450 acbe 854e e4bd d5da 9abe
000001b0: 76ba 473d ffe8 dfbe 2f28 0b3d 13bd a4be
000001c0: 4d5a 683f 2006 7b3f 02c0 90be 2adc 413f
000001d0: 5760 343f b24e 3a3f 7a6e d0bd 2610 3cbf
000001e0: a70a c73e 663a 22bf 4ee1 0cbf 6a9f af3b
000001f0: 89ea cabe 7469 143f 711f 2e3f 04f5 953e
00000200: 3bab 56bf b258 2d3e 80ac 813f 3fba f1bc
00000210: fb7c a23f 6d4b 00be 830b 343f ff6b 08bf
00000220: 0fb7 92bf 0feb c9be a4c1 67be c0a1 113f
00000230: 0b51 fbbc 2126 4c3e 32f1 40be 4b36 813f
00000240: 5cee c33c c071 e2be f088 523f d8fb c1be
00000250: deb4 87be b944 54be 1169 44bd 09a2 05bf
00000260: 631e b4be 7fa1 283e e825 a93d d3bd 17bf
00000270: 3e24 d8be a929 873f 52f7 fbbd 5495 91bf
00000280: 06c3 983f b8fb ae3d d676 8dbf 9bb7 973f
00000290: fd5b 5d3f 27ed 1d3e fe5b 01bf 659a 54be
000002a0: 77ed 5d3e 6628 ce3f 5b54 443e 53ab 353d
000002b0: fa14 173f c6d7 dc3d 4de3 1b3e 770f 95be
000002c0: 5241 563f 17f0 47bf 895a c03e b928 793e
000002d0: ffb7 abbe 02ce 4b3e bdc1 223f dbf1 71bf
000002e0: bd56 173d 0d9a abbf 8372 d8be 5a07 6d3f
000002f0: 5770 343e 9482 09bf 8ad3 3bbe 098d 13bf
00000300: 3eea f0be c427 4ebd 6a64 12bf 0ce8 143f
00000310: ba72 4b3e 0296 5f3e 0484 73bf 3bb7 4f3f
00000320: 26fc 33bf 6ff2 01bf 14e3 493d c13b 0d3f
00000330: 8b40 a8bf 0c9a bd3d 32a3 183f bd3b d83d
00000340: a538 05bf 382e f6be 2ee4 2d3f 6199 1dbf
00000350: c4a2 403f 9eb0 4fbf 336b 313f 5eef 993d
00000360: 793e 7a3e dc91 c23e 461d f93e 4a37 0f3e
00000370: e157 2fbe d3e6 a7be 31e0 86bf 4375 77bd
00000380: 65e1 4339 808e ffbe 304b 273f d609 4bbf
00000390: b422 2a3e 714c 49bf 9775 2a3e f277 86bf
000003a0: 87af 0f3f b7cb c73e 0ab3 c2bd 6a16 c73d
000003b0: 498e 6f3f cb4a 04be 32c1 9c3f 40a3 163f
000003c0: 4e87 04bf e235 d8bd 7ca2 57bf a3b8 853f
000003d0: 9805 babe 98b1 4e3f 208a 843e b985 07be
000003e0: 1fc0 8bbf af16 843f 2fa5 3f3f 8ad5 2abf
000003f0: 1b52 93be 7135 953e 91c1 1a3e 79b2 4c3f

linear2.bias f4 [10]
-0.41990775 0.29128158 -0.34163672 -0.20331982 0.0629036 0.5019778 -0.051069327 -0.22108802
0.2067654 0.1283606
00000000: 26fe d6be dc22 953e 02eb aebe 1233 50be
00000010: 9ad3 803d 9e81 003f 122e 51bd e664 62be
00000020: 4fba 533e f670 033e
